…
  Labels: [np.str_('A'), np.str_('B'), np.str_('C'), np.str_('D'), np.str_('E'), np.str_('F'), np.str_('G'), np.str_('H'), np.str_('I'), np.str_('J'), np.str_('K'), np.str_('L'), np.str_('M'), np.str_('N'), np.str_('O'), np.str_('P'), np.str_('Q'), np.str_('R'), np.str_('S'), np.str_('T'), np.str_('U'), np.str_('V'), np.str_('W'), np.str_('X'), np.str_('Y'), np.str_('Z')]

[2/5] Initializing model and preprocessor...
Model architecture:
Model: "character_recognition"
┏━━━━━━━━━━━━━━━━━━━━━━━━━━━━━━━━━┳━━━━━━━━━━━━━━━━━━━━━━━━┳━━━━━━━━━━━━━━━┓
┃ Layer (type)                    ┃ Output Shape           ┃       Param # ┃
┡━━━━━━━━━━━━━━━━━━━━━━━━━━━━━━━━━╇━━━━━━━━━━━━━━━━━━━━━━━━╇━━━━━━━━━━━━━━━┩
│ input_layer (InputLayer)        │ (None, 512, 13)        │             0 │
├─────────────────────────────────┼────────────────────────┼───────────────┤
│ conv1d (Conv1D)                 │ (None, 512, 64)        │         2,560 │
├─────────────────────────────────┼────────────────────────┼───────────────┤
│ max_pooling1d (MaxPooling1D)    │ (None, 256, 64)        │             0 │
├─────────────────────────────────┼────────────────────────┼───────────────┤
│ dropout (Dropout)               │ (None, 256, 64)        │             0 │
├─────────────────────────────────┼────────────────────────┼───────────────┤
│ conv1d_1 (Conv1D)               │ (None, 256, 128)       │        24,704 │
├─────────────────────────────────┼────────────────────────┼───────────────┤
│ max_pooling1d_1 (MaxPooling1D)  │ (None, 128, 128)       │             0 │
├─────────────────────────────────┼────────────────────────┼───────────────┤
│ dropout_1 (Dropout)             │ (None, 128, 128)       │             0 │
├─────────────────────────────────┼────────────────────────┼───────────────┤
│ conv1d_2 (Conv1D)               │ (None, 128, 256)       │        98,560 │
├─────────────────────────────────┼────────────────────────┼───────────────┤
│ max_pooling1d_2 (MaxPooling1D)  │ (None, 64, 256)        │             0 │
├─────────────────────────────────┼────────────────────────┼───────────────┤
│ dropout_2 (Dropout)             │ (None, 64, 256)        │             0 │
├─────────────────────────────────┼────────────────────────┼───────────────┤
│ bidirectional (Bidirectional)   │ (None, 64, 256)        │       394,240 │
├─────────────────────────────────┼────────────────────────┼───────────────┤
│ bidirectional_1 (Bidirectional) │ (None, 128)            │       164,352 │
├─────────────────────────────────┼────────────────────────┼───────────────┤
│ dense (Dense)                   │ (None, 128)            │        16,512 │
├─────────────────────────────────┼────────────────────────┼───────────────┤
│ dropout_3 (Dropout)             │ (None, 128)            │             0 │
├─────────────────────────────────┼────────────────────────┼───────────────┤
│ dense_1 (Dense)                 │ (None, 64)             │         8,256 │
├─────────────────────────────────┼────────────────────────┼───────────────┤
│ dropout_4 (Dropout)             │ (None, 64)             │             0 │
├─────────────────────────────────┼────────────────────────┼───────────────┤
│ dense_2 (Dense)                 │ (None, 26)             │         1,690 │
└─────────────────────────────────┴────────────────────────┴───────────────┘
 Total params: 710,874 (2.71 MB)
 Trainable params: 710,874 (2.71 MB)
 Non-trainable params: 0 (0.00 B)
✓ Model and preprocessor ready

[3/5] Preprocessing data...
✓ Training: (10387, 512, 13)
✓ Validation: (1155, 512, 13)
✓ Test: (4108, 512, 13)

[4/5] Building and training model...
Model architecture:
Model: "character_recognition"
┏━━━━━━━━━━━━━━━━━━━━━━━━━━━━━━━━━┳━━━━━━━━━━━━━━━━━━━━━━━━┳━━━━━━━━━━━━━━━┓
┃ Layer (type)                    ┃ Output Shape           ┃       Param # ┃
┡━━━━━━━━━━━━━━━━━━━━━━━━━━━━━━━━━╇━━━━━━━━━━━━━━━━━━━━━━━━╇━━━━━━━━━━━━━━━┩
│ input_layer_1 (InputLayer)      │ (None, 512, 13)        │             0 │
├─────────────────────────────────┼────────────────────────┼───────────────┤
│ conv1d_3 (Conv1D)               │ (None, 512, 64)        │         2,560 │
├─────────────────────────────────┼────────────────────────┼───────────────┤
│ max_pooling1d_3 (MaxPooling1D)  │ (None, 256, 64)        │             0 │
├─────────────────────────────────┼────────────────────────┼───────────────┤
│ dropout_5 (Dropout)             │ (None, 256, 64)        │             0 │
├─────────────────────────────────┼────────────────────────┼───────────────┤
│ conv1d_4 (Conv1D)               │ (None, 256, 128)       │        24,704 │
├─────────────────────────────────┼────────────────────────┼───────────────┤
│ max_pooling1d_4 (MaxPooling1D)  │ (None, 128, 128)       │             0 │
├─────────────────────────────────┼────────────────────────┼───────────────┤
│ dropout_6 (Dropout)             │ (None, 128, 128)       │             0 │
├─────────────────────────────────┼────────────────────────┼───────────────┤
│ conv1d_5 (Conv1D)               │ (None, 128, 256)       │        98,560 │
├─────────────────────────────────┼────────────────────────┼───────────────┤
│ max_pooling1d_5 (MaxPooling1D)  │ (None, 64, 256)        │             0 │
├─────────────────────────────────┼────────────────────────┼───────────────┤
│ dropout_7 (Dropout)             │ (None, 64, 256)        │             0 │
├─────────────────────────────────┼────────────────────────┼───────────────┤
│ bidirectional_2 (Bidirectional) │ (None, 64, 256)        │       394,240 │
├─────────────────────────────────┼────────────────────────┼───────────────┤
│ bidirectional_3 (Bidirectional) │ (None, 128)            │       164,352 │
├─────────────────────────────────┼────────────────────────┼───────────────┤
│ dense_3 (Dense)                 │ (None, 128)            │        16,512 │
├─────────────────────────────────┼────────────────────────┼───────────────┤
│ dropout_8 (Dropout)             │ (None, 128)            │             0 │
├─────────────────────────────────┼────────────────────────┼───────────────┤
│ dense_4 (Dense)                 │ (None, 64)             │         8,256 │
├─────────────────────────────────┼────────────────────────┼───────────────┤
│ dropout_9 (Dropout)             │ (None, 64)             │             0 │
├─────────────────────────────────┼────────────────────────┼───────────────┤
│ dense_5 (Dense)                 │ (None, 26)             │         1,690 │
└─────────────────────────────────┴────────────────────────┴───────────────┘
 Total params: 710,874 (2.71 MB)
 Trainable params: 710,874 (2.71 MB)
 Non-trainable params: 0 (0.00 B)
✓ CNN+BiLSTM architecture built
Training on 10387 samples...
Traceback (most recent call last):
  File "/Users/m.kosuri/Documents/github.com/sensor_fusion/train_with_onhw.py", line 156, in <module>
    main()
    ~~~~^^
…
